src/q_network_trained.pth (torch, 21100 bytes, 6 tensors)

fc1.weight f4 [64, 4]
00000000: f5fd fd3d 5724 de3e 3f24 e73e aeb6 cc3e
00000010: ed56 a33e 5bf0 073f ce51 abbe daef 243f
00000020: 4f6a a2be 99c9 2b3f 8124 173f e3c5 00be
00000030: ed13 30bb d4c1 ebbe 91d9 c8bf 2bc8 88bf
00000040: 561a c7be 8ade c23e 287b 0c40 67d9 043f
00000050: 235e afbf b149 e8be ae78 313f ada0 f83e
00000060: a99a 49bd ceae df3e 41b4 863e 1783 1a3f
00000070: e2e9 1040 8903 bf3f 3ee8 d93f 2d35 763f
00000080: cf3b 753f 412c 143e 07c9 dcbf 0a9e 5cbf
00000090: 4d72 a8bd 17d5 293f 0113 cf3f 014f 533e
000000a0: d95b a9be f49a e03e 2762 863e c74f 043f
000000b0: 83f5 873c fe6d e13e 9df5 c63e 439d b63e
000000c0: 29a2 cbbf 604d dabf a0ff cbbf 2440 71bf
000000d0: 242c d3be 186e 93bd edad fa3d 2cd2 513e
000000e0: aeb3 ee3f 6f57 e13e f67d 37bf 931c 3fbe
000000f0: 8e16 4cbe 2235 443f 312d 963f 968b d83e
00000100: 94d6 9cbe 1d11 f1bd 0c56 243f 1d11 533c
00000110: 497d d13b e2e6 b33e 60f8 15bc e8e8 c63e
00000120: f8b5 643c 576c a63c 78b3 9f3e f121 9a3e
00000130: 8d28 c73e 6974 233f 3da8 3b3f 70a3 eb3d
00000140: fb28 353f 3561 e23e 41b8 a53f b95e 403f
00000150: 9139 433e 052f 193e a0b7 1a3d df14 ab3e
00000160: 668b ef3c 8f06 123f 5af1 f63f f4dd 433f
00000170: d670 05c0 f98d a3be 26b7 c43e 4dae 35bd
00000180: 2196 07be 7b78 253f 48ab 7c3f ba62 413e
00000190: b3cd 323e 8396 913e 9e62 953e bb9d fe3e
000001a0: 97b0 193f b1f5 9d3e e1b2 473e 8b5b 03be
000001b0: f195 19bf a8eb a9bf 52dc 0bc0 1951 71bf
000001c0: 5745 89be 3561 c03e 1c46 8a3f 30db b1bd
000001d0: 7299 6dbf a5fb 28bd 97a7 5c3f 1474 993e
000001e0: b513 483e cea8 383e 1437 ae3e 51d4 0f3f
000001f0: 3ba0 583f b44e 91be 9c69 f9be 1bd5 263d
00000200: d213 f9bc 77e6 9f3e 9526 0a3d 3ad5 b43e
00000210: b184 d73d 5614 1f3f 6bb8 c33e 47ce 003f
00000220: f18c fdbe b0db 78bf 33d3 aebf 81cf eebe
00000230: 9376 453f 4c2f 94be 2a79 c5bc 8ffb 093b
00000240: 6c3e 263e 171e ac3e e43e 083f ae74 97be
00000250: 95ca 4ebf 7976 6b3d aaeb 0ebf 21e9 a9be
00000260: 5393 653f 97b5 973f 2fd1 0340 ef36 673f
00000270: 55b8 843e 4607 9bbb 98f8 9a3b 3126 813e
00000280: 28a4 3abe 5878 34bf a36c 26bf 692a a53e
00000290: bb9d ad3f 40cc 933e 8211 b0bf 7d4f 32bf
000002a0: 400a 89bf 11ea 64be 0cee 863f 8f6e 763e
000002b0: 5d21 613e be5f 04be 57d8 723d e4fe cd3e
000002c0: 7e51 2940 511f d63f 0e1c 833f e798 823f
000002d0: 9ec9 9cbe 3096 d33e 04bc be3f 2e9f 5f3f
000002e0: 6fe7 32be c685 9bbd 3109 f83e 1037 35be
000002f0: 582c 9cbf fa79 38be f2c4 073f 4429 753e
00000300: 2ee6 ab3e fcc7 713f 038e e93f d699 513f
00000310: 4545 7f3e 9f25 853e 0c19 3a3f 3baa ea3e
00000320: 5793 08bf e96b 323f db6a 913f e47c db3e
00000330: ca71 d3be 0dc1 71be 1516 213d e1e5 533e
00000340: 2df8 ac3f 43bc c1bd f4a0 a3bf 2005 41bf
00000350: 05d7 73bf 1fc2 fbbe 665c 7d3f e876 f53d
00000360: 9692 563f cca8 a63f 9022 d83f c3b1 663f
00000370: aa33 bc3e 0771 613f 8624 0240 4db7 3e3f
00000380: 3f80 bebf dae6 c9be 1281 2d3f c494 b2bd
00000390: 1fa8 edbd 2612 e93e 5d84 823f c41b 4d3e
000003a0: 14f5 bf3e c7da ed3c a266 403f 363c 223e
000003b0: c25c c9be 7297 e63e 71c7 743f 4afb c93e
000003c0: f7f2 a9be 3914 023e 690f 003f 3c3d 1cbe
000003d0: 6b81 533e d4d3 573e 42b3 fa3e 1149 d83d
000003e0: 2936 6d3e 0832 a03c d635 653f a680 8abe
000003f0: c02b 74bf 194d 2b3f d22b 0940 d919 473f
0.12401954 0.433871 0.4514484 0.39983124 0.31902257 0.5310113 -0.3346085 0.64428484
-0.31721732 0.6710449 0.59040076 -0.12575488 -0.0026867345 -0.46046317 -1.5691396 -1.0686086
-0.3888728 0.3806041 2.1950169 0.5189423 -1.3700603 -0.45368722 0.6932477 0.48560086
-0.04921976 0.43688053 0.26309398 0.6035628 2.264275 1.4922954 1.7024 0.9617489
0.95794386 0.14470007 -1.7248849 -0.8617865 -0.08224926 0.66340774 1.6177675 0.20635606
-0.33077887 0.4386822 0.2624676 0.5168423 0.016596561 0.4402923 0.38859263 0.35666856
-1.5908862 -1.7054863 -1.5937386 -0.94238496 -0.41244614 -0.07198733 0.12240205 0.2049033
1.8648584 0.4401202 -0.71676576 -0.18663244 -0.19930479 0.76643574 1.1732541 0.42293996
-0.3063246 -0.11770842 0.641938 0.012882498 0.006393109 0.35137087 -0.0091534555 0.38849568
0.0139594 0.020315332 0.3119161 0.3010402 0.38898125 0.638495 0.73303586 0.115057826
0.70765656 0.44214788 1.2946855 0.75144535 0.19064929 0.14959343 0.037772775 0.3341436
0.029241275 0.5704126 1.9292405 0.7651055 -2.085012 -0.31944254 0.3842098 -0.04435568
-0.13240863 0.64636964 0.98698854 0.18885317 0.1746128 0.28435144 0.291768 0.49729714
0.6003508 0.3085151 0.1950183 -0.1282789 -0.5999442 -1.3275042 -2.1853223 -0.9426437
-0.26810715 0.37574163 1.0802646 -0.08684385 -0.92812264 -0.041255612 0.8619322 0.29971373
0.19538768 0.18033144 0.34026396 0.56183344 0.8461949 -0.28380358 -0.48713386 0.040730577
-0.030404959 0.31230518 0.0337282 0.3531893 0.10523356 0.62140405 0.38226637 0.50314754
-0.49521592 -0.97210217 -1.3658203 -0.46642688 0.77134055 -0.28942335 -0.024105627 0.0021054482
0.1623475 0.33616707 0.53220963 -0.29581207 -0.80777866 0.05748603 -0.55828345 -0.33185676
0.89677924 1.1852292 2.0596426 0.90318197 0.25921884 -0.0047310917 0.0047293417 0.2522445
-0.18226683 -0.7049613 -0.65009516 0.3225892 1.356376 0.28866768 -1.3755343 -0.6965254
-1.0706253 -0.22354914 1.0541396 0.24065612 0.21985383 -0.12927148 0.05928835 0.4023353
2.645599 1.6728307 1.0242937 1.0202912 -0.30622572 0.4132552 1.4901128 0.87352264
-0.17471097 -0.07593875 0.48444512 -0.17696786 -1.2201033 -0.1801528 0.5303489 0.23941523
0.3357405 0.94445777 1.8246464 0.8187536 0.24928768 0.26005265 0.7269447 0.45833
-0.5334982 0.6969591 1.1360735 0.4286872 -0.41297752 -0.236088 0.0393277 0.2069316
1.3513237 -0.09459736 -1.2783494 -0.75398445 -0.9524997 -0.4917154 0.98969114 0.1198557
0.8381742 1.3020263 1.6885548 0.9011499 0.36758167 0.8806309 2.0334792 0.74498445
-1.4882888 -0.39433938 0.6777507 -0.08719781 -0.11604332 0.4552166 1.0196644 0.20030123
0.37491667 0.029034985 0.75156605 0.15843281 -0.3932858 0.4503742 0.95616823 0.3944953
-0.3319318 0.12703027 0.50023514 -0.15257734 0.20654838 0.210769 0.48964888 0.10560811
0.23165192 0.019555107 0.8953527 -0.27051276 -0.9537926 0.66914517 2.1432996 0.77773815

fc1.bias f4 [64]
00000000: 052a 253f 9c7d 153f a757 5f3f f961 06bf
00000010: e1c8 07bf c8b3 4c3d 363c 6f3f 5af0 2c3d
00000020: 0815 19bf 1db8 153f c6f0 413f 092a 003f
00000030: ba63 2c3d c655 0d3f 6fdb 233f 6f4e 953e
00000040: 083e 123f a0fd 313f 71d9 673f dbc6 a03e
00000050: a87d 2dbe 069a 3e3f 80ca c9be 19ab 5c3e
00000060: 31b0 0dbe b380 6a3f 49d3 233f 9485 2b3d
00000070: 1a48 483f 36b8 f03e 07dc 5c3f 1978 663e
00000080: 71dc 043f d6cc 4e3e e936 dd3e 9a64 8c3e
00000090: c322 533f 5aec 2b3f 8a26 573b 4273 4f3f
000000a0: 5f32 093f 25c6 cebe 2295 fa3e 59dc 853f
000000b0: 848e 6e3e 679d aebe 6678 12bf 73e3 97be
000000c0: f39c ba3e 07b7 1c3f da3b 4d3f 823c 1c3f
000000d0: ed8c eebe 69b2 5cbe 06c8 49bc d121 dc3e
000000e0: 5848 d23d 2a83 563e adc4 333f d0d9 fc3e
000000f0: 9903 623f 7215 513f 98da 813f 13eb 1cbf
0.6451724 0.5839479 0.8724312 -0.52493244 -0.5304089 0.04997614 0.9345125 0.042221405
-0.59797716 0.5848406 0.75758016 0.5006414 0.042087294 0.55209005 0.64006704 0.29161403
0.571259 0.69527626 0.90566164 0.31401715 -0.16942465 0.7445377 -0.39412308 0.21549644
-0.13836743 0.9160263 0.6399427 0.041875437 0.7823502 0.47015542 0.86273235 0.22506751
0.51898867 0.20195326 0.43205956 0.27420503 0.8247492 0.6715752 0.0032829368 0.81035244
0.53592485 -0.40385547 0.48941904 1.045787 0.23296553 -0.34104463 -0.57214963 -0.29665717
0.36447868 0.6121678 0.8016945 0.6102983 -0.46591893 -0.21552433 -0.012315756 0.4299455
0.10267705 0.20948473 0.7022198 0.49384928 0.8828674 0.8167335 1.0144835 -0.61296195

fc2.weight f4 [64, 64]
00000000: 5e45 c03e 100b 493e 32fd 5b3e 826f 11bf
00000010: a609 c5bf 79d8 2cbf 1d98 e83e 3051 48bc
00000020: ea07 20bf 30cd dc3e 1b25 aa3e 38af d73e
00000030: f53d 86bf 700f 943c 5d7e 29be 0a15 1a3f
00000040: 4b6e b5bd 7a64 df3e 7486 2b3e bb6a 9e3e
00000050: ecb3 a0bd 081f 053f f538 86bf 780c 77bf
00000060: 59d2 653e ab54 0b3f 106f af3e 186a d8bf
00000070: 5c61 8d3e 45ed 2cbf 0523 e03e e975 16bb
00000080: a4b5 a53e d6f9 fb3e 0d12 72bf b6b3 bbbd
00000090: cb50 d23e a34b fcbd bc76 12bf 3d3d a13e
000000a0: 31f1 17bd feb8 0ebf fa99 31bf 722b 623e
000000b0: 8c26 413e 3ce8 b6be dbf3 16bd e9a1 67bf
000000c0: d14a 0dbf 6cd6 2c3f 7562 ec3e ffd6 003e
000000d0: 8276 3ebf 481c 41bf fa63 2abf 5377 21bf
000000e0: b02f 5fbf 54ff cf3e bb97 833e 3d03 283f
000000f0: 8796 d63d 9cf5 043f 6fba 683e aa95 edbf
00000100: 26ad b1bd f9db f0bd 9045 a73d a313 51bd
00000110: e2ad 803d 2051 77bc 8002 8dbd 8249 f4bd
00000120: 9677 bcbd 80c7 24bd addd 9ebd 8918 c63d
00000130: 4859 71bd 02a8 a6bd 5752 16be bd18 e5bd
00000140: 5ef1 e43c d27e bb3d 4b25 b2bd 6189 653d
00000150: ddbf 9cbd 0cb3 64bc 9046 0ebd 6056 973b
00000160: 6188 343d c77a d73d 4a30 febd 2e56 e33d
00000170: 9e92 b4bd 00aa 503a 7a3b ebbd c0a1 bebc
00000180: 7b56 70bd af6e 51bd 6c69 b23d 44e9 673d
00000190: 5fbe a33d 4be9 93bc 62d9 f3bd ebe9 cc3d
000001a0: 64c5 9c3d b255 a7bd 606f 73bd dac3 5d3c
000001b0: e049 eabc c63c 263d 6c84 e93d 342b 0dbd
000001c0: e2f6 e6bd f890 56bd 9969 bebc 6e89 ecbd
000001d0: fc64 6abd 1059 7c3c b65d 96bd a49f 54bd
000001e0: 14f8 82bd eab2 663d 9fc3 24bd 7969 f4bd
000001f0: 7d1c 04be d4a2 933d 42e1 e23c a43b dbbd
00000200: 9c7a 92bd d067 b73c 26e5 97bd 9cec 653d
00000210: bc66 84bd 3876 99bd 846d 62bd 9e99 e13d
00000220: c4a2 f3bd 905b 963c c0a7 e4bb 6083 ea3b
00000230: 243d 31bd 2036 aa3c 1a25 d63d 3e84 be3d
00000240: 405b 003b 00db 0abb f06c 49bd 4c7b dcbd
00000250: e481 e6bd 80e2 d1bb e4af ab3d c2a9 9b3d
00000260: 38e2 a8bc 008d a0bc 426c a9bd f8ca b6bc
00000270: e4f3 c2bd 34fe ec3d 840c c6bd 5c96 aebd
00000280: 884d e13c ae5c f7bd c029 91bc e4e9 7fbd
00000290: 849b c2bd 9023 bbbd c47b 2ebd 9c1b 33bd
000002a0: bad6 fbbd 54f7 6fbd 381d 2e3d c01d ba3d
000002b0: 0c46 9cbd 20cd debd 5447 763d e25e fabd
000002c0: 28c0 b8bd fe71 e0bd 06f0 87bd ae2f 83bd
000002d0: b09f 2cbd feff d33d 9096 6dbd 6c3a d3bd
000002e0: 1021 103d 7453 06bd 5867 ef3c b8c2 adbc
000002f0: 0691 8fbd 008d d43c 003d c13d 0864 cb3d
00000300: 53ad a3be 3ff6 14bf 5bb7 6fbe bc90 c0be
00000310: 459c 43bf b592 81be f348 c73d 70bf f0bf
00000320: 2eb4 82bf 5f25 1bbf 6641 cb3d 2bef b5be
00000330: 7d4d 9fbe fcd1 eb3e 4083 d3be a246 19bf
00000340: 7a74 b23e 72f3 353c a823 953e e38d 7fbe
00000350: 5a90 96be a533 923d 0d7a a1be 57d1 cfbe
00000360: 9e29 e1bd c161 733e 55cc ba3d 54ee 01bf
00000370: b625 af3d a8c2 5dbf e8b6 7c3c bb62 143f
00000380: 84ea 2bbf d1aa 5cbe 2d53 92bd a6ff 423f
00000390: 33c8 b23d cb44 d53d 683c 99bf b592 843e
000003a0: 6090 3e3f 3fed 77bf b596 24bf 808c 893e
000003b0: dbe6 f7bf 89b2 91be 2e33 86bd 84b5 0ebf
000003c0: ca41 e1bf 7b23 5bbe 0ade 23be e294 163f
000003d0: 0592 8bbf 587a 98be eae5 e9bf e6ba f7bf
000003e0: 9fd8 8ebe b854 10bf 977f 103e dc8b 1bbe
000003f0: 7bf9 403e 0c4c 26bd 0f9b 32bc 1137 46bf
0.37552923 0.19633126 0.21483305 -0.5681077 -1.539357 -0.6751781 0.45428553 -0.012226388
-0.62512076 0.43125296 0.33231434 0.4212587 -1.0487658 0.018073767 -0.1655211 0.60188353
-0.08858927 0.43631345 0.16750509 0.30940804 -0.078468174 0.52000475 -1.0486132 -0.965034
0.22443523 0.5442607 0.3426442 -1.6907377 0.27613342 -0.67549545 0.43776718 -0.0022958464
0.32365143 0.49214047 -0.94558793 -0.091651365 0.41077265 -0.12319114 -0.57212424 0.31492034
-0.037095252 -0.55751026 -0.69375575 0.22086886 0.1886236 -0.35724056 -0.036853652 -0.9048143
-0.55192286 0.6751468 0.46168867 0.12582015 -0.7439958 -0.7543378 -0.665588 -0.630727
-0.8718214 0.40624487 0.257017 0.6562994 0.104779296 0.5193727 0.22727369 -1.8561299
-0.086756036 -0.117607065 0.08167565 -0.051044118 0.062831655 -0.015095025 -0.068852425 -0.11928083
-0.09202497 -0.04022932 -0.07757125 0.096726485 -0.058923036 -0.08137514 -0.14679848 -0.11186359
0.027947124 0.091550484 -0.08698519 0.056039218 -0.076537825 -0.013958704 -0.034735262 0.004618451
0.044075374 0.10521465 -0.12411554 0.11100422 -0.088170275 0.0007959902 -0.11485954 -0.023270488
-0.058676224 -0.051130947 0.08711514 0.056618944 0.07995295 -0.018055579 -0.11906697 0.10005554
0.07654837 -0.08170642 -0.059432387 0.013535464 -0.02859968 0.0405853 0.114022106 -0.03446503
-0.11277558 -0.052384347 -0.023243712 -0.1154965 -0.057225212 0.0154020935 -0.07342093 -0.051910058
-0.063949734 0.05632297 -0.04022562 -0.1193418 -0.12901492 0.072087914 0.027695302 -0.10704735
-0.07152292 0.022388369 -0.074167535 0.05613385 -0.064649075 -0.074932516 -0.055280223 0.11015628
-0.118962795 0.018354207 -0.006978005 0.0071567744 -0.0432712 0.020777762 0.10456295 0.09302567
0.001958564 -0.0021187663 -0.049176157 -0.107657045 -0.112552434 -0.0064051747 0.08383158 0.07600738
-0.020615682 -0.019598484 -0.08272602 -0.02231358 -0.09519175 0.11571923 -0.09670356 -0.085247725
0.02750279 -0.12078224 -0.017720103 -0.062478915 -0.095023185 -0.091376424 -0.0425985 -0.043727502
-0.12296815 -0.05858548 0.042508334 0.090877056 -0.07630548 -0.10878968 0.060126618 -0.12225129
-0.09021026 -0.10959242 -0.06637578 -0.064055786 -0.042144477 0.10351561 -0.058004916 -0.103138775
0.03518778 -0.03279443 0.029224083 -0.021211013 -0.07010083 0.02594614 0.09435463 0.09931189
-0.31968173 -0.5818824 -0.23409788 -0.37610424 -0.76410323 -0.2530724 0.09730711 -1.8808422
-1.0211236 -0.606039 0.09924583 -0.35534033 -0.31113806 0.46058643 -0.41311073 -0.598734
0.3485449 0.011105405 0.29128766 -0.24956469 -0.29407007 0.07138757 -0.3153843 -0.405894
-0.10994266 0.23767759 0.091210045 -0.50754285 0.08552115 -0.86625147 0.015424468 0.5796315
-0.6715472 -0.21549536 -0.07144771 0.7617134 0.08729591 0.10413512 -1.197156 0.2589318
0.7443905 -0.96846384 -0.6429246 0.26865005 -1.9367326 -0.28456524 -0.065527305 -0.5574572
-1.7598202 -0.21400253 -0.1600267 0.5882093 -1.0903937 -0.2978084 -1.8273289 -1.9353912
-0.27899644 -0.5637927 0.14111172 -0.15190071 0.18845169 -0.040599868 -0.010901227 -0.77427775

fc2.bias f4 [64]
00000000: f5b4 ae3e ed31 80bc 6059 323c aa56 603d
00000010: a222 453e 4857 163e 0b4d 863d 602e 893e
00000020: d2a5 0f3f 693e fbbc 79d3 5e3f 8c28 063e
00000030: 1f1d 1d3c 08ab 553e 4b0e b23e d67f 053d
00000040: d057 293f b10b 943e 2c31 743e 68e1 ad3d
00000050: 2e12 5a3e 000e 3b3c a331 0f3d 05fb 3a3d
00000060: 7617 c13e 3e1d b53e 0aa2 a73d c600 04bd
00000070: 2165 6fbd 37c0 2b3f b747 8a3e fea1 c83d
00000080: be82 25be a07d 8a3e ee91 7c3f 82df 863b
00000090: f2d0 333e 115c 823e 189e 4b3f 9ece d23c
000000a0: cf54 ae3e 7efc f6bd fd29 253f bbd3 023e
000000b0: 746a 20bd d7d3 ecbd f5c2 e73d 9c72 79be
000000c0: d8e3 903e 9753 c43d aa9f 863d 6f65 523e
000000d0: 5e7c b3bc 62c3 4b3d fc8d c2bd 725b 6d3e
000000e0: b467 cd3d 9d3f abbd 97f6 8d3d 6643 69bc
000000f0: 0665 733f ee50 083e 2e5b f33e 67b2 ba3e
0.34122434 -0.015648806 0.0108855665 0.05477015 0.19251493 0.14681733 0.065576635 0.26793194
0.56112397 -0.030669408 0.8704143 0.13101405 0.009589463 0.20866024 0.3477653 0.032592617
0.66149616 0.2891517 0.23846883 0.084902585 0.21295998 0.011416912 0.034959447 0.045649547
0.37713212 0.35373873 0.081852034 -0.0322273 -0.058446053 0.6709017 0.2700784 0.097965226
-0.16163155 0.2704897 0.9866017 0.0041159997 0.17560175 0.25460866 0.79538107 0.025733288
0.3404908 -0.12059878 0.64517194 0.12776081 -0.03916402 -0.11563843 0.11316482 -0.24360126
0.2829883 0.09586256 0.06573422 0.20546506 -0.021909889 0.04974688 -0.094997376 0.23179415
0.100295454 -0.08361743 0.06931799 -0.01423726 0.95076025 0.13312122 0.47530502 0.36464235

fc3.weight f4 [2, 64]
00000000: e318 313f 15c1 b9bc b409 b9bd a9aa 1e3f
00000010: 9eb8 49bf b272 843f 1570 773f e366 233e
00000020: 8ca2 503f e0df 983f 5fc8 853f 6bfc 3c3f
00000030: 7088 cb3d 22ff 81bf 5111 b63f 8056 593f
00000040: d962 9e3f ae84 58bf f3fe 273f 77a6 853f
00000050: 7786 473f 5d4e 743b 8402 36bf 3b1b 9cbd
00000060: cf96 50bf a668 57bf 9a94 87bf ad05 063d
00000070: 6a9f aa3e 8c2f 53bf 9e13 313f 8ac0 2ebd
00000080: fe49 33bf 4170 b5be 9aa5 833f 6e98 bb3b
00000090: 1e11 493f 2bc0 253f a698 8f3f 45eb e7bd
000000a0: 6bbf ca3f aa5a ab3d a3a3 b63e 0a80 4a3f
000000b0: 4061 503f e91a 5abd 9974 6f3d 4fbd 7e3e
000000c0: de0e 323f 043b 333f 0fc5 523d a547 b33e
000000d0: 2b0b 8abd b2a5 21bd e1a0 5d3c 22ef 1d3f
000000e0: 39c4 933f 5983 51bd 2aad 30bf 8094 6a3f
000000f0: 240f 803f da13 333f 85d2 d83f 895d d23e
00000100: 727e 383f fc43 5fbd c0d6 cfbc edec ab3f
00000110: e286 83be 899f 483f c117 623f 7ce0 c73f
00000120: ef80 b73f 394d 383f 73ea 4e3f 6d0c 5c3f
00000130: 7c94 013c 75eb 91bf 3c01 0f3f 5003 4d3f
00000140: b6cc 503f ee04 8dbf d8a9 8c3f 3b13 c73f
00000150: 3f5b 1a3f 4f35 d8bc 4bfd 46bf e281 df3d
00000160: ee4a 88be 1301 82be c764 a4be 3e56 6dbd
00000170: 8470 a53e fce5 533d d796 253f 4b75 c7bd
00000180: abab efbf 8fe9 a1bf 0c26 4d3f fb1a 33bd
00000190: ca2e 3d3f de6a 6f3f ba4b 483f 0a4b dfbc
000001a0: b488 bb3f 310d 293d 32d5 163f 8c03 693f
000001b0: b54f 7c3f 4b8e 08be a264 e2bd f88e febf
000001c0: 72b1 4c3f 5162 3f3f 1beb c0bd f6a1 e23e
000001d0: ea78 54bd 8ebc 9e3d 26ba 82bb 55a6 303f
000001e0: 1038 173f 0cd1 f93d a0dd a8be 27d5 6a3f
000001f0: 03c4 543f 2dc3 943f ab24 913f 3709 a33f
0.691786 -0.022675076 -0.09035054 0.61979157 -0.7879733 1.0347502 0.966554 0.15957217
0.81498027 1.1943321 1.0451773 0.7382266 0.09938133 -1.0155985 1.4224035 0.84897614
1.2373916 -0.84577453 0.65623397 1.0441426 0.7793955 0.0037278153 -0.7109759 -0.07622381
-0.81480116 -0.84144056 -1.0592225 0.032720257 0.33324748 -0.82494426 0.6917056 -0.04266409
-0.7003478 -0.35437205 1.0284913 0.005724958 0.78541744 0.6474635 1.121846 -0.11324171
1.5839666 0.08366902 0.3567172 0.7910162 0.8139839 -0.05324832 0.058460806 0.24876903
0.69553936 0.70011926 0.05145746 0.35015598 -0.06740411 -0.03946466 0.013527126 0.6169301
1.1544257 -0.051150654 -0.6901423 0.91632843 1.000462 0.69952166 1.6939245 0.41086987
0.7206794 -0.054508194 -0.025370955 1.3431679 -0.25688845 0.7836843 0.88317496 1.5615382
1.4336222 0.7199283 0.8082649 0.8595646 0.007908937 -1.1399981 0.5586126 0.8008318
0.81562364 -1.101713 1.0989332 1.5552744 0.6029548 -0.026392607 -0.77730244 0.10913445
-0.26619667 -0.25391445 -0.32108137 -0.057943575 0.32312405 0.051733002 0.6468329 -0.09739169
-1.8724264 -1.2649401 0.8013618 -0.043726902 0.7389952 0.9352244 0.7824055 -0.027257461
1.4651093 0.041272346 0.5891906 0.9102104 0.98559123 -0.1333553 -0.110543504 -1.9887381
0.7995826 0.74759394 -0.09419843 0.4426419 -0.051873125 0.07750808 -0.003989476 0.690038
0.5906992 0.12198076 -0.32981586 0.91731495 0.8311159 1.1622063 1.1339315 1.2737187

fc3.bias f4 [2]
00000000: 1161 393f a8f0 d03e
0.72413737 0.40808606
